software/model_parameters.pth (torch, 440290 bytes, 6 tensors)

fc1.weight f4 [128, 784]
000000 33 8d e7 bc dc 26 0d ba 70 93 9a bc d1 81 db bc
       -0.028265571 -0.00053845136 -0.018869132 -0.0267953
000010 dc 52 7c bc b7 59 1d ba b7 6d a3 38 01 cf b2 3b
       -0.015400615 -0.0006002443 7.792882e-05 0.0054568057
000020 f7 67 17 bc aa af 67 3c 65 d9 27 3c 40 d5 a3 3b
       -0.009241096 0.014141003 0.010244702 0.0049997866
000030 77 ec b8 bb ae 15 e9 3c 4a 61 7c bb aa c5 c7 bc
       -0.005643423 0.02845272 -0.0038510137 -0.024386246
000040 e3 71 d3 bc 82 fa 09 3d 8a 9e d9 3b 8b 34 07 bd
       -0.025811141 0.03368617 0.006641214 -0.033009093
000050 53 5e 47 bc 31 ce be bc 27 93 a0 3c 9c f6 db bc
       -0.012168485 -0.02329168 0.019601418 -0.026850991
000060 fa d5 92 bc e1 3b 7a 3c c5 31 68 3c 73 98 06 3d
       -0.017924298 0.015273065 0.014172022 0.03286023
000070 87 09 02 bd 37 de 96 bc 6a 0a da 3c f7 3c a9 bc
       -0.031747367 -0.018416507 0.026616294 -0.020658953
000080 a5 1c 3d bb 8c ff 9b bc 61 e0 c3 bc 0a 33 4f bc
       -0.0028856185 -0.019042753 -0.023910703 -0.012646446
000090 27 15 cb bc 8e a9 e0 3c 6e 6e 0b 3d 0a 53 c1 3c
       -0.02479036 0.0274246 0.03404086 0.023599166
0000a0 a5 1d 71 bb 5c 28 39 bb b8 39 de b9 00 cf 9a bc
       -0.003679135 -0.0028252816 -0.00042386143 -0.018897533
0000b0 e7 98 00 3d 35 04 fa 3c 8e ab b2 3c 25 49 e8 39
       0.03139582 0.030519584 0.02181032 0.00044304985
0000c0 1c 18 63 3c 6a 4c d7 3c 9c 51 f3 bc 35 80 f4 3c
       0.013860729 0.026281554 -0.029702 0.02984629
0000d0 c0 a9 8a 3b 01 40 d0 37 dc 35 31 3c 0a e8 82 bb
       0.0042316616 2.4825336e-05 0.010816064 -0.0039949464
0000e0 b7 7f 21 bc 12 07 0e 3d cc 00 ba 3c 3e eb e5 bc
       -0.00985711 0.03467471 0.022705458 -0.028066274
0000f0 ce 25 12 bd dc df 8e 3c 3c da 0b bd fc d4 c4 3c
       -0.035680585 0.017440729 -0.03414367 0.02402734
000100 01 73 d3 bb 38 ab 03 3d 6e e4 8a bc a1 e8 ac bc
       -0.0064529185 0.03214571 -0.016954627 -0.02110702
000110 0c 5b df 3c 13 5b e7 3c ee 92 d0 bc 73 d6 75 bc
       0.027265094 0.02824167 -0.025460687 -0.015004742
000120 0c 9a b5 bc a5 66 9a 3c e3 bd ec bc 25 97 c8 bc
       -0.022168182 0.018847773 -0.028899139 -0.024486134
000130 dc 8e db 3a 05 48 e4 bc f7 16 d1 bb 01 e5 f0 3b
       0.001675095 -0.027866373 -0.0063809115 0.007351518
000140 00 08 1f 3c dc df 6c 3c 80 46 05 bd 0a 88 82 3c
       0.009706497 0.014457669 -0.032537937 0.01593401
000150 63 ca 9c 3c 33 a0 02 3c 4a be 22 ba 05 50 4f bc
       0.019139474 0.007972765 -0.0006208165 -0.0126533555
000160 d7 b9 22 3c 2e 64 8f bb fc 79 43 bc a1 70 c3 3c
       0.009932003 -0.004375956 -0.011930939 0.023857417
000170 4e 1e 3b bc 37 07 27 bb 6c 47 fd 3c 80 d6 10 3d
       -0.011420799 -0.0025486478 0.030917846 0.035360813
000180 9c 83 cf bc ec 1c 03 3d e7 04 94 3c 8a 66 97 3c
       -0.02533131 0.032010004 0.018068744 0.018481512
000190 05 5a 64 bc 8e d0 7e bc 6e 35 bb 3a ec dd 9a bc
       -0.013937478 -0.015552653 0.0014282891 -0.018904649
0001a0 e5 79 8a 3c b7 bd 0b 3a 8e 8b 06 bc 85 83 4a bc
       0.016903827 0.0005330699 -0.008211983 -0.012360458
0001b0 ae 68 36 bc 37 45 d0 3b e1 ff b6 3c c1 34 4f 3c
       -0.011133356 0.0063559073 0.02233881 0.012646855
0001c0 ba f8 8f 3c 6a 7f 15 3c aa 14 ab bc 6a 3f 16 3c
       0.017574657 0.009124616 -0.020883877 0.0091703925
0001d0 3e a0 b6 3c 57 7c 4a 3c dc f5 49 bb 7a 42 0c bd
       0.022293206 0.0123587465 -0.003081671 -0.034243084
0001e0 03 e6 d6 3c 85 7d ba 3c f5 ef a0 3c 6c 7c d5 3c
       0.026232725 0.02276493 0.01964567 0.026060306
0001f0 38 64 6e 3c 13 9e ab 3b ee b6 b5 3b 7a 1d 00 3d
       0.014550261 0.00523735 0.0055454886 0.03127811
000200 4d db 06 3d 98 42 08 3d 20 59 09 3c da 45 f8 bc
       0.032923985 0.033266634 0.008383065 -0.030306745
000210 b7 b3 0b bb 8a 65 06 3d 81 f4 f7 bc 6c 80 b9 bc
       -0.0021316835 0.03281168 -0.030267956 -0.022644244
000220 4a db 5a bb 2e 18 fb 3c c5 58 3e 3c f3 8b 5a 3c
       -0.0033394867 0.030651178 0.011617844 0.013339031
000230 dc 1d 44 bc 7e 59 f3 3c 13 f2 46 bb 37 47 d5 3c
       -0.01197001 0.02970576 -0.003035669 0.026034934
000240 3a e2 ee 3c b8 e2 64 bc 98 f6 72 3c 6a 50 77 bc
       0.029160608 -0.01397007 0.0148293 -0.015094856
000250 fe 90 fc 3c a5 6d b5 3b 0e 66 01 bd c1 8e f7 bc
       0.030830856 0.0055367523 -0.031591468 -0.030219438
000260 75 15 f5 3c 1c 57 e8 bb 2e 0e f1 3c 35 fd b7 bc
       0.029917458 -0.0070904624 0.029425707 -0.022459606
000270 93 c9 ef 3c 15 62 c2 3c 0e 1d cf bc 33 e1 3f 3c
       0.029270923 0.02372841 -0.025282409 0.0117114065
000280 1a e9 f5 3c 20 e3 92 bc d3 cb 4b bc e5 3d 36 bc
       0.030018378 -0.017930567 -0.012438732 -0.011123155
000290 57 c4 0d 3c d7 aa 04 3d 65 40 3d bc af 2b 0a 3d
       0.008652768 0.032389488 -0.011550997 0.033733066
0002a0 41 bc ea bc de 95 de bc 8a 81 01 3d 35 d7 03 3d
       -0.02865422 -0.027171072 0.03161768 0.03218766
0002b0 17 b6 0c 3d aa e0 e5 bc b3 1b 8d bc f3 41 b8 3c
       0.034353342 -0.02806123 -0.017225122 0.022492385
0002c0 a5 00 2b bc 0a 75 13 3c f7 73 55 bc dc 03 ba bc
       -0.010437165 0.009000072 -0.013028136 -0.022706918
0002d0 8e 59 61 bc de 2a dc bc 13 01 ff bc 6c 33 10 bd
       -0.013754262 -0.02687591 -0.031128442 -0.03520529
0002e0 d3 77 fd 3c 25 e2 64 3b 33 5c 07 bc ca 1a db bb
       0.030940926 0.0034924832 -0.008261728 -0.006686543
0002f0 a7 6c 81 bc 67 90 0d 3d dc 9e 57 bb 81 fe bd 3c
       -0.01579888 0.03456154 -0.0032901084 0.023192646
000300 bc 73 56 3c 77 64 af bc cc b0 11 bd 2a b6 20 bc
       0.013089117 -0.02141021 -0.035568997 -0.009809056
000310 4e 31 08 bd 25 5a 89 3b ec 68 bb 3c ca 94 0b 3b
       -0.033250146 0.0041916543 0.02287718 0.0021298402
000320 65 a4 ed 3c d2 0f 10 3d 9a 79 92 3c 9b 70 0d bd
       0.029009053 0.035171337 0.01788025 -0.034531217
000330 25 48 0c 3c 28 5e 08 3d 6c 2d ac 3c 0a ef 12 3c
       0.0085621225 0.03329292 0.021017753 0.008968124
000340 4a 6a ba b9 13 d4 18 3b d7 d6 0e 3c 81 6a 73 3c
       -0.00035555876 0.0023319765 0.008718214 0.0148569355
000350 e1 de da 3c 73 a5 b2 3c 24 52 0d bd c1 98 ae bc
       0.026717605 0.021807408 -0.034502164 -0.021313073
000360 5c 66 37 3c 25 05 e8 39 7e e8 ac 3c 15 8e f6 bc
       0.011193838 0.0004425432 0.021106955 -0.030097047
000370 dc 8a d6 3a ac 56 b7 bc 1a ab 85 bc 23 a7 b3 3c
       0.0016368288 -0.022380196 -0.01631694 0.021930283
000380 dc 8c 4f bb 13 ec ab 3b e3 b0 09 bd c1 d5 4b bc
       -0.0031669652 0.005246648 -0.033615958 -0.0124411
000390 47 f3 d3 3c 9a fb d3 bc 75 64 e8 3c 23 c2 c7 bc
       0.02587284 -0.025876809 0.028368214 -0.024384564
0003a0 41 c6 45 bc 1c 30 af 3c aa e4 66 3c 3c 0b 89 bc
       -0.012071193 0.021385245 0.014092604 -0.01672899
0003b0 1d e8 10 3d d7 47 a6 3c 4c 9a c2 bc ae 44 d6 3c
       0.03537761 0.020297928 -0.023755215 0.026155796
0003c0 0a f0 8d 3c 54 a5 06 3d ae f2 96 bc 13 9c 10 bb
       0.017326374 0.032872513 -0.018426266 -0.0022065684
0003d0 1e 7f f6 bc 95 83 b1 bc a1 35 6c bc 6e 19 02 3c
       -0.030089911 -0.021669189 -0.014417083 0.007940633
0003e0 31 28 e5 bc 7c cb 67 3c f3 2a 76 3c c5 9c 1e 3c
       -0.027973266 0.014147636 0.015024888 0.009680931
0003f0 b3 89 d0 3c 95 1e b9 3c 91 49 b9 bc cc ae e1 bc
       0.025456285 0.02259759 -0.022618087 -0.02754917

fc1.bias f4 [128]
000000 01 24 42 ba 4a b6 98 3a 7c 60 a5 3c 13 6d 94 bc
       -0.00074058777 0.0011651006 0.020187609 -0.018118417
000010 a5 74 7a 3b 6e f6 07 3c 35 b9 f1 bc 7f 56 11 3d
       0.0038216498 0.0082984995 -0.029507259 0.03548288
000020 e0 f5 06 3d c7 3d 98 bc c5 ba ed bc 05 b2 f2 bc
       0.03294933 -0.018584145 -0.029019723 -0.029625902
000030 37 b7 a5 3c 1c e3 00 bc 17 d7 c5 3c d3 fd 05 bd
       0.020228965 -0.007866647 0.024150414 -0.03271277
000040 2e 21 f5 3c 4a 7f 54 bc ce 46 a8 3c 5c 41 11 3d
       0.029923048 -0.012969801 0.020541575 0.035462722
000050 25 d6 c7 3b 1c 49 bd 3c b7 3b 2c bb 7c 20 11 bd
       0.006098526 0.02310615 -0.002628071 -0.03543137
000060 a3 ea bc 3c f3 7d ae bc ae 38 b6 bc ba 60 b8 3c
       0.023061102 -0.021300292 -0.022243824 0.02250706
000070 93 8b e8 bb 25 81 2f 39 7d a6 0b bd 5c 86 2d 3c
       -0.0070967167 0.0001673741 -0.034094322 0.010591116
000080 63 74 0a 3d 35 81 b2 bc bc 83 ea 3c fc ed fa 3c
       0.0338024 -0.021790126 0.028627269 0.030631058
000090 df 6e 01 bd e5 b1 83 3b 20 8d 0c bd aa dd 27 3c
       -0.031599876 0.0040190094 -0.034314275 0.01024572
0000a0 ea c7 18 bc ba 40 a2 3c 48 5d e0 3c 75 67 cd 3c
       -0.009325007 0.019806255 0.02738823 0.025073746
0000b0 ac 59 8c 3c 6a 3b 02 3c 95 0d ea 3c ce 94 c8 3c
       0.017132603 0.007948736 0.02857093 0.024485018
0000c0 d3 dd d2 3b 13 9c d6 bc ee 5c a4 bc 43 d8 99 3c
       0.006435135 -0.026197469 -0.020063844 0.01877988
0000d0 4e 95 6a bc dc 5d 61 3b 8e 47 1e 3c 93 ca 92 bc
       -0.014317824 0.003438822 0.009660615 -0.01791886
0000e0 be 14 a7 3c 9c ee bc bb 05 50 f9 3c 25 1e 68 3c
       0.020395633 -0.005765749 0.030433664 0.014167343
0000f0 7c f7 7a 3c c0 35 a5 3b 97 a3 02 3d cc e5 91 bc
       0.015317794 0.005041808 0.031894293 -0.017809771
000100 03 23 93 3c 2e 2e 8b bb 1e d1 ef 3c d3 3d 99 bb
       0.01796103 -0.0042474484 0.02927452 -0.0046765595
000110 1c 6c 6b 3c ae 5d 14 3c 55 b2 91 bc 13 f2 e3 3b
       0.014369037 0.009055538 -0.01778523 0.0069563477
000120 de 50 c3 bc 6e d0 5f 3b 7c 75 5c bc 41 d6 d6 3b
       -0.023842271 0.0034151333 -0.013455745 0.006556303
000130 73 c0 89 3c 4a e4 33 3b a5 cb 24 bb 8c 71 e3 bc
       0.0168154 0.0027449303 -0.0025145796 -0.027764104
000140 c1 18 6a 3c 5c 47 6b 3c 80 af 04 3c aa c9 a6 bc
       0.014288128 0.014360275 0.008098483 -0.020359833
000150 0a 27 10 3d 1a c2 b8 3c b8 36 e6 bc 1c 62 6e bc
       0.03519348 0.022553492 -0.028102264 -0.014549758
000160 dc 41 ba 3c 2a 3c ae 3c 65 ff 82 bc 93 99 ee bb
       0.022736482 0.021268923 -0.015990922 -0.007281491
000170 18 02 5c 3c 01 48 4c bc 55 83 82 3c 0a a4 f8 bc
       0.013428234 -0.012468339 0.015931765 -0.030351657
000180 f1 c8 f1 3c e4 f3 07 bd f3 cd 1d bc da c6 ea 3c
       0.029514762 -0.033191577 -0.009631622 0.028659273
000190 d7 14 0b bd 75 8e 04 3d 9c 3d bf 3c 4a 3c 1b bc
       -0.03395542 0.03236242 0.023344807 -0.009474823
0001a0 6e 41 11 3c 8a 7f 90 3b 2e 33 2e 3c 01 5d c9 ba
       0.008865697 0.004409735 0.010632319 -0.00153628
0001b0 51 8e f0 bc ca e1 ce 3c 61 9d 42 bc 63 25 bc bc
       -0.029364737 0.025254149 -0.011878342 -0.022967046
0001c0 91 39 ad bc a8 b8 04 bd 01 71 63 3c c1 81 b6 3c
       -0.021145614 -0.032402664 0.013881923 0.022278668
0001d0 31 11 fe bc 37 a6 c4 bc d0 0c 02 3d ea 05 70 3c
       -0.031014057 -0.024005039 0.0317505 0.0146498475
0001e0 4a 95 63 3b 8e 3f cd bc d7 49 85 bc 0a be 1e 3c
       0.0034726434 -0.02505472 -0.016270561 0.0096888635
0001f0 1e f5 0d bd 7c 72 7f bc f7 e8 9d bc 2a f3 76 3c
       -0.03465759 -0.01559126 -0.019276125 0.015072623

fc2.weight f4 [64, 128]
000000 de 8b 5c 3d 86 36 1a 3c 06 a9 c5 3c c0 c6 9d 3d
       0.053844325 0.009412413 0.024128448 0.07703924
000010 ee a2 1e 3d 47 e4 6d 3a d9 3f f2 bc 2d 51 7c 3d
       0.0387296 0.00090748485 -0.02957146 0.061600853
000020 5a 7a 4e bb dc a0 54 3d 81 7f 86 3d 07 58 06 bd
       -0.0031506033 0.05191122 0.06567288 -0.032798793
000030 7c e1 b8 3b a0 5d 1e 3d 54 d2 88 3d 85 e7 42 3d
       0.005642114 0.038663507 0.06680742 0.047584075
000040 df ff 59 3d f4 a0 03 3c 2b a9 9e bd bd da 86 bd
       0.053222533 0.00803398 -0.0774711 -0.0658469
000050 34 4a 11 bd 91 97 41 bc a7 a5 91 bd 9d 07 3b 39
       -0.035471156 -0.011815921 -0.07111674 0.00017836546
000060 31 09 84 3d 41 08 aa bb ca e8 1c bc c3 89 b2 bd
       0.064470656 -0.005188972 -0.009576986 -0.08717682
000070 80 14 91 3d 65 10 4c 3d d8 dd cc bc d0 6b 0f 3b
       0.07083988 0.049820323 -0.025008127 0.002188433
000080 af 19 91 3d d7 0c 22 3d 09 2b 50 3d 46 5c 25 3d
       0.07084977 0.039563026 0.05082229 0.040371202
000090 3b 60 9a bd 0c e3 3b bd 6f e0 84 bc a4 66 8a bd
       -0.07537886 -0.045870826 -0.0162203 -0.067578584
0000a0 a3 5e a9 bd 20 0f 65 bd dd 4a 4c bd 0a 5b 2d 3c
       -0.08270004 -0.055922627 -0.049876083 0.010580787
0000b0 a7 92 36 3c 12 00 75 bd 71 cc 35 3d 0a c8 b6 bc
       0.011143363 -0.05981452 0.044384424 -0.022312183
0000c0 d6 69 b7 3b fc 8a 9e bd 60 d4 b0 bd 50 d3 ad 3d
       0.0055973334 -0.07741353 -0.08634257 0.0848757
0000d0 c3 34 c7 bc 18 c6 ed 3c c2 a1 e6 3c 8e c3 97 3d
       -0.024317151 0.029025123 0.028153304 0.07410346
0000e0 70 02 36 3d e6 09 76 bd 63 f2 eb bb 80 73 9c 3c
       0.04443592 -0.060068034 -0.0072005256 0.019098043
0000f0 7d 21 b1 3d f6 e7 81 3c 12 cc 95 3d 44 de c3 bb
       0.086489655 0.015857678 0.07314314 -0.005977424
000100 3b 13 96 3d b4 b4 2c 3d c6 88 7c 3d 3b 64 ac 3d
       0.07327887 0.04216452 0.061653875 0.08417555
000110 fb 7f cf bc 1b 48 fc bc 99 20 b4 bd f7 b5 5c bd
       -0.02532958 -0.030796101 -0.0879528 -0.053884473
000120 6b eb 8c 3d 9a 11 a6 bd f2 71 22 3d 96 43 3b 3c
       0.0688084 -0.08108826 0.039659448 0.011429688
000130 c2 d8 44 bc 44 7b 7f 3c 03 7e 99 3c 53 26 64 bd
       -0.01201457 0.015593354 0.018736845 -0.05570061
000140 36 32 18 3d 24 2a 3d bd 8c 51 c8 bc 5b b7 3a 3b
       0.03715726 -0.046182767 -0.024452947 0.0028490636
000150 d7 1b 82 3d 93 62 1c bd 1a 69 cd 3c 2e 28 b8 3c
       0.06352966 -0.038179945 0.02507453 0.022480097
000160 89 08 b4 bc b2 0b f7 3c a6 a9 7b 3c 27 f2 97 3d
       -0.021976726 0.030156944 0.015360272 0.07419234
000170 fc b6 68 3c a3 af b3 3c 47 e8 d8 3c 2e 1b 74 3d
       0.014203783 0.021934336 0.026477946 0.059596233
000180 3d 4c 9b 3d 3b 89 81 3d 99 f4 c9 3c 10 4f 05 bd
       0.07582901 0.06325003 0.024652766 -0.032546103
000190 a4 5f 1b 3b 8e 08 9b bc 73 9c 91 3d 14 af 6d 3d
       0.002370813 -0.018924978 0.071099184 0.058028296
0001a0 fc bb b0 3c 59 25 80 3d c4 f9 6b 3d e7 d0 86 bd
       0.021574013 0.062571235 0.057611242 -0.06582814
0001b0 00 3f 02 bc 7c 5a d3 bb 3e 98 69 bc 8e 91 ae bd
       -0.007949591 -0.0064499956 -0.014257489 -0.08523856
0001c0 a1 f0 9d bd 23 f7 a8 3b 3d eb ae 3d 7f f0 a7 3d
       -0.07711912 0.005156414 0.08540962 0.08200168
0001d0 ea 7d 8a 3c 64 13 33 bd 55 63 ef 3c 95 87 90 3d
       0.016905744 -0.043719664 0.02922217 0.0705711
0001e0 39 3a 98 3d a7 ec 32 3c b6 e0 b3 bd 22 66 88 3d
       0.0743298 0.01092068 -0.087830946 0.06660105
0001f0 7d 22 14 bd 40 24 bb bc ae 81 bf bc 6e c3 81 bd
       -0.036165703 -0.022844434 -0.023377266 -0.063361034
000200 36 48 99 bd 3f 7f b1 bd 85 b4 3c bd 95 10 b2 bd
       -0.07484476 -0.086668484 -0.046070594 -0.08694569
000210 c7 b8 8e 3d 11 fc da 3c 49 ac 38 bd 5f 82 db 3c
       0.06968837 0.026731523 -0.04508618 0.026795564
000220 a6 74 01 bd d6 3b 96 bd fd 60 97 3b 2a 9d 9e 3b
       -0.031605385 -0.073356315 0.004619716 0.0048405128
000230 fd a6 a8 3c 90 fb 85 3d 29 45 2d bd fa 49 90 bd
       0.020587439 0.06542122 -0.042302284 -0.0704536
000240 51 29 14 bd b0 e8 10 3d 17 46 1e 3d 3d 9c 7a 3c
       -0.036172215 0.035378158 0.03864106 0.015296039
000250 13 d0 70 bd 52 9d 72 bd 88 73 e2 bc 6d e2 a6 3d
       -0.058792185 -0.059232064 -0.02764298 0.08148656
000260 0f 72 25 bd 5a 63 c5 3b f1 54 8b bd b8 83 a0 3c
       -0.040391978 0.0060238065 -0.06803311 0.019594058
000270 1b 6e 96 bd 57 77 71 bd 2a d5 43 bb 3b 98 a9 3d
       -0.0734522 -0.058951702 -0.0029881694 0.08280989
000280 fb 59 7c bd 09 4d 9e bd e6 e1 87 3d fb 88 a6 bd
       -0.06160925 -0.07729537 0.066348836 -0.08131596
000290 ee 22 0e 3d d4 1e 6f 3d b2 42 f3 bc a8 b8 87 3d
       0.03470128 0.05837901 -0.029694889 0.06627017
0002a0 77 a7 17 bd d2 8f 52 3d 0b c7 5c bd ac f6 00 3d
       -0.03702494 0.05140669 -0.05390076 0.031485245
0002b0 da 51 38 bc b5 31 f6 3c cd 70 f5 bc 37 5e 5e bd
       -0.011249984 0.030052999 -0.029961014 -0.05428907
0002c0 13 d3 9f 3d e2 ec 30 3c 64 a6 70 bd 63 f6 5a 3d
       0.07803931 0.010798665 -0.058752432 0.05345763
0002d0 78 98 db bc e3 8d a1 3d 6e 3e 62 bd f4 60 84 bd
       -0.026806101 0.07888391 -0.05523532 -0.06463805
0002e0 19 fd 5d bd dc 35 8c bd 0b 90 fe bc ea 29 93 3d
       -0.05419645 -0.0684621 -0.031074544 0.07185729
0002f0 a7 e4 0a 3d c7 8a e2 bb 87 0a 55 bc 24 d9 06 bd
       0.033909466 -0.006913516 -0.013002998 -0.032921925
000300 97 18 27 bd 9f 43 89 3d 81 9d 90 3d 7d ed 00 bc
       -0.040794935 0.06702351 0.070612915 -0.007869122
000310 49 93 66 bd 46 81 c5 bc 70 a7 9a 3c 35 98 ef 3b
       -0.056292806 -0.024109494 0.018878669 0.0073118457
000320 19 9c 08 bd 51 a4 ef 3c df ff 57 bd b4 62 36 3c
       -0.03335199 0.029253157 -0.052734252 0.011131931
000330 7d a7 1d bd d9 8b 18 bd 21 4b 83 3d ee bf a7 bd
       -0.038489807 -0.037242744 0.06410814 -0.081909046
000340 84 08 3c 3c 85 0d 96 bd f1 f0 77 3d f9 0d 99 3d
       0.01147664 -0.073267974 0.060532514 0.07473368
000350 33 f4 30 3d 7a 23 b3 bd 9d 83 30 bc 26 cd b5 3b
       0.043201637 -0.08747001 -0.010773567 0.0055481372
000360 b7 ab b2 3d 05 58 12 3d 29 79 83 3d 7e cd 8d 3d
       0.08724158 0.035728473 0.06419594 0.0692396
000370 68 0f 45 3d 81 b9 a0 bc 21 f2 a3 3d f5 b1 b4 3d
       0.048110396 -0.019619705 0.08005167 0.08823005
000380 d9 3a 08 3d 1d 6e 56 bc 60 a2 4d bc ee 78 ed bc
       0.033259246 -0.0130877765 -0.01255092 -0.028988328
000390 35 22 a2 bd 8c 31 0c 3d ab 67 5d bd 59 52 13 bd
       -0.07916681 0.03422694 -0.054053944 -0.035967205
0003a0 8a 58 a2 3d ba 4c 6f 3b 08 2a 6d 3d 87 94 22 bc
       0.07927044 0.0036514238 0.057901412 -0.009923107
0003b0 91 74 8c bd 7a f5 a9 bd 6b 35 31 3d c8 7b 0c 3d
       -0.06858171 -0.08298774 0.043263834 0.034297734
0003c0 38 85 f5 bc ab f5 1d 3b 08 66 b0 3d e3 64 a7 3d
       -0.02997075 0.0024102728 0.08613211 0.081735395
0003d0 74 8b 8b 3c 23 8b 98 bd 95 ee 3d bd 58 25 8f bd
       0.01703427 -0.07448413 -0.046370108 -0.06989545
0003e0 bf c5 70 3c 4e dd 85 bd 18 e0 12 bd 37 13 c3 3c
       0.014695584 -0.06536351 -0.035858244 0.023812873
0003f0 ec 7b 3b 3d 54 35 99 bd f5 b4 1f bc 13 dc 35 bd
       0.045772478 -0.07480875 -0.009747733 -0.044399332

fc2.bias f4 [64]
000000 c6 89 b4 bd 9d f8 6e bd 70 5b b0 bd 10 bf 9e bc
       -0.08815341 -0.058342565 -0.0861119 -0.019378215
000010 8c 91 25 bd 7c 41 86 3d 59 be a1 3d 66 0d 14 3d
       -0.040422007 0.06555459 0.07897634 0.03614559
000020 ce 63 81 bd f3 49 41 3d 37 01 8f bc 79 6c 42 bd
       -0.06317864 0.047189664 -0.017456634 -0.04746673
000030 84 6b fe 3b 6e 1d 3a bd 34 c0 b0 3b 3c c4 04 bc
       0.0077642817 -0.045438223 0.005394006 -0.008103427
000040 fd 6b 76 3d 5b 0d 01 3c b9 65 46 bd 8b 76 87 bd
       0.06016158 0.007876719 -0.048436854 -0.06614407
000050 04 60 9f 3d 96 c6 8b bd 39 45 9c bd b2 a5 26 bd
       0.077819854 -0.06824987 -0.07630391 -0.040685363
000060 b8 08 90 3d b2 31 1a 3d c3 cf 71 bd ea 1d 79 3c
       0.07032913 0.03764505 -0.059036028 0.015204886
000070 f5 17 0a bd f3 29 8d 3c c5 27 5c 3b 3c 36 89 39
       -0.033714253 0.017231917 0.003359304 0.00026171084
000080 70 7f fc 3c 42 3e 46 3d 80 53 36 bc 91 fd aa 3d
       0.030822486 0.048399217 -0.011128306 0.08349145
000090 b6 c1 9a bd 66 45 91 3d 40 38 74 bd b0 8a a3 bc
       -0.07556479 0.07093315 -0.059623957 -0.019963592
0000a0 a2 6f 4c 3d 85 3d 02 3d d5 82 36 bd 1b 1a c4 bb
       0.04991115 0.03179695 -0.044558365 -0.0059845573
0000b0 7b 5f 5b 3b 90 9b 8e bd 48 36 b3 3d 5a bb ac bd
       0.003347366 -0.06963265 0.08750588 -0.08434172
0000c0 7f 07 f3 3b a5 3c a6 3c b7 52 49 bd 12 87 00 bd
       0.007416665 0.02029259 -0.04915115 -0.031378813
0000d0 14 47 00 bd 45 b5 f3 3b 0b c1 7e bd 9b 35 9c 3d
       -0.031317785 0.0074373805 -0.06219582 0.07627412
0000e0 0f b3 a6 bd d8 ce 84 bd 0d fc 7a 3d 76 9b 9e bc
       -0.081396215 -0.06484765 0.06127553 -0.019361239
0000f0 9c 8a 8e bd b2 43 00 3c 56 0f 11 3d 82 48 7b bb
       -0.069600314 0.00782864 0.035415016 -0.0038342779

fc3.weight f4 [10, 64]
000000 94 05 9b bd 94 3a 52 bd 00 74 1a ba 2c ca 2a bd
       -0.07569423 -0.051325396 -0.0005891919 -0.041696712
000010 b0 14 04 3d 9c 46 03 bd ac 96 7a 3d 98 10 75 bd
       0.03224629 -0.03204976 0.06117885 -0.05983028
000020 46 bc ed bd d2 0c ef 3d 2a 6a f6 3d 5e 45 b3 3d
       -0.11608176 0.11672367 0.12031968 0.08753465
000030 40 52 19 bb 80 00 74 bc 74 f3 6a 3d 70 c3 30 bc
       -0.0023394972 -0.014892697 0.05736108 -0.010788783
000040 98 28 2e bd d6 83 fa 3d ae dc a6 3d 06 4e eb 3d
       -0.042519182 0.12232177 0.0814756 0.11489491
000050 88 97 f7 3d d8 5b c7 3c a0 f6 3a 3d 28 26 cb 3d
       0.12089449 0.024335787 0.045645356 0.09919387
000060 98 d1 44 3d f0 25 74 3c dc d7 42 3d c0 4d 0c bd
       0.048051447 0.014901623 0.04756914 -0.034253836
000070 d8 11 b3 3c fe b3 b0 bd 60 92 c8 bd 54 80 0f bd
       0.021859095 -0.08628081 -0.09793544 -0.035034493
000080 2a f3 87 3d d8 c8 fd 3c f6 cd 85 3d 80 c8 3a 3b
       0.06638177 0.030979559 0.065334246 0.0028500855
000090 2e d9 bd 3d 96 1f 89 3d 5c 4c ef bd 30 b2 71 bd
       0.09269939 0.06695478 -0.11684486 -0.059007823
0000a0 08 68 f3 bc c8 28 2c bd 3c 85 60 3d ae 2f 96 3d
       -0.029712692 -0.04203108 0.054814562 0.07333313
0000b0 c0 04 1b 3c f0 f3 0b 3c 00 fa 18 bc 20 61 7f 3c
       0.009461582 0.008542046 -0.009336948 0.015587121
0000c0 c4 aa 3b 3d 18 43 97 3c 8c ad c4 bd 3a 1b bc bd
       0.04581715 0.01846461 -0.09603414 -0.091848806
0000d0 4c 5d 65 3d ac 75 52 3d 5c cb 14 3d 78 4c eb 3c
       0.055997178 0.051381752 0.03632675 0.028722987
0000e0 d0 eb f6 3c d2 26 c1 bd c4 39 ad 3d bc b4 1f 3d
       0.030141741 -0.094312325 0.084582835 0.03899072
0000f0 24 5a 84 3d d8 b8 8b bd 88 2c 4e 3d 16 0c da 3d
       0.064625055 -0.068223655 0.050335437 0.106468365
000100 a4 03 47 bd 40 1c 19 bb 88 3d 49 3d 08 fb a1 bc
       -0.048587456 -0.0023362786 0.049130946 -0.019773021
000110 f0 9b 0f 3d d0 62 12 bd 40 f9 e9 3c 00 14 47 3d
       0.035060823 -0.035738766 0.028561234 0.048603058
000120 6c 23 d6 3d cc 49 2f bd ea 81 94 bd f4 5b 14 3d
       0.10455975 -0.042794988 -0.07251342 0.036220506
000130 40 e7 d9 3c 50 15 06 3c 30 e5 b3 3c f4 79 7a 3d
       0.026599526 0.008183792 0.021959871 0.06115146
000140 dc bf 3c 3d 20 1c 72 3c 54 38 28 3d 50 a5 0d 3d
       0.04608141 0.014777213 0.041069344 0.034581482
000150 92 8d da 3d 80 ab 4a bb 20 54 64 3d ec 76 99 3d
       0.10671534 -0.0030924976 0.05574429 0.07493386
000160 90 28 e2 3c 88 69 93 3d bc ca 3c bd 24 cb 24 bd
       0.027607232 0.07197863 -0.04609178 -0.040232792
000170 0a 40 82 bd 38 94 f6 bc 22 f2 cd 3d 70 68 2a bc
       -0.06359871 -0.030099973 0.10055949 -0.010400876
000180 80 72 72 3c c8 ee 7a bd 38 fb f1 3d 1a 71 85 3d
       0.014797807 -0.061262876 0.11815494 0.06515713
000190 b0 57 7f 3d 24 20 3f bd f4 fc af bd 78 fd ad 3c
       0.062339485 -0.04666151 -0.08593169 0.021239027
0001a0 04 73 08 3d 74 3c df 3d c8 0e c0 bc 54 24 b0 3d
       0.033312812 0.109002024 -0.023444548 0.08600679
0001b0 00 86 91 3c 80 68 db 3d e6 13 89 bd 20 0b 7b 3c
       0.017764091 0.10713291 -0.066932485 0.015322477
0001c0 da fc df 3d 60 1a 60 bd 42 a8 9d 3d ce a0 bb bd
       0.109368995 -0.054712653 0.07698108 -0.091615304
0001d0 8c 8d ff 3d c0 d5 e2 bc e8 35 fd bd 20 8b 64 bd
       0.1247817 -0.027689815 -0.123637974 -0.055796742
0001e0 12 86 9a bd ce 55 cd bd be 1c e5 3d 56 8f e3 bd
       -0.07545103 -0.100261316 0.11187123 -0.111113235
0001f0 70 61 9b bc 10 55 54 bd 00 20 d9 3b 48 64 c9 bc
       -0.01896736 -0.051838934 0.006626129 -0.02458395
000200 44 02 b8 3d bc d6 12 3d a8 04 81 3d 46 32 e0 3d
       0.08984807 0.035849318 0.06299716 0.10947089
000210 c0 8e f6 3b de 22 d6 bd 62 4b b9 3d 54 db 3f 3d
       0.0075243413 -0.10455869 0.09047581 0.046840027
000220 ac 91 6e 3d a6 bb db 3d e2 f3 fc 3d 48 c9 e7 3d
       0.058244392 0.107291505 0.123512045 0.11317688
000230 ca 73 c8 3d fa 4e e1 bd 74 cf a2 3d 3c f8 62 3d
       0.0978771 -0.11001392 0.07949725 0.055412516
000240 a0 d6 9e 3b b0 b3 9b bd 3e fc 93 bd 64 42 0f 3d
       0.0048473626 -0.07602632 -0.07225846 0.034975424
000250 f0 32 62 3d 90 a4 08 3d 38 07 ec bc 78 37 9b bd
       0.05522436 0.033360064 -0.028812036 -0.07578939
000260 2e a9 e6 3d b0 ca 5a 3d ac 61 f6 3d d0 c0 4c bc
       0.11262737 0.053415954 0.12030348 -0.012497142
000270 d0 d6 e1 3c 80 4c 37 3b 84 ad 4a bd 68 37 64 bd
       0.02756825 0.0027969182 -0.049481884 -0.055716902
000280 06 7e 8f 3d 1a 38 b0 3d 86 10 fd 3d e0 11 11 bd
       0.07006459 0.086044505 0.12356667 -0.035417438
000290 28 e7 02 3d d8 22 22 3d a4 2e b8 3d 30 ee 88 bc
       0.03195873 0.03958401 0.08993271 -0.01671514
0002a0 1c ae 53 3d 10 3c 91 bc 60 57 ef bc 3e 3b 8b bd
       0.051679716 -0.017728835 -0.029216468 -0.06798409
0002b0 90 fe 43 bc 14 8b e6 3d e0 76 4c 3d 8c 15 04 3d
       -0.011962548 0.11256996 0.049918056 0.03224711
0002c0 c4 62 34 3d fc 92 7f bd 20 07 b9 3c 40 5e f5 bb
       0.044039503 -0.062396035 0.022586405 -0.007488042
0002d0 70 99 72 3d ae 35 d4 3d d0 1e 16 bc 00 c0 a9 b7
       0.05922836 0.10361801 -0.00916262 -2.0235777e-05
0002e0 98 e1 67 bd 48 aa 94 bd 28 08 1c bd 88 a3 38 3d
       -0.056611627 -0.07259041 -0.038093716 0.04507783
0002f0 7c 10 7e bd 30 7c 31 3c 2a db eb bd 38 ca b6 bd
       -0.06202744 0.010832831 -0.115164116 -0.08925289
000300 c0 04 88 3b 2a 30 be bd 88 61 f3 3c 00 b0 25 bb
       0.004150957 -0.0928653 0.029709592 -0.0025281906
000310 36 8c 91 bd 30 49 5d bc 88 b2 81 bd 5e a4 f6 bd
       -0.07106821 -0.013506219 -0.0633288 -0.12043069
000320 b0 ca e7 3d 44 6f 94 3d 38 f9 8f 3c 50 85 2e 3d
       0.113179564 0.07247785 0.017574891 0.042607605
000330 a8 fd dc bc 58 c5 ce 3d d8 cc b1 3d 0e 11 d3 3d
       -0.026976421 0.10096234 0.08681649 0.10305987
000340 98 22 c3 3c fa e0 b2 bd 78 de c4 3d 14 d3 17 3d
       0.023820207 -0.08734317 0.09612745 0.037066534
000350 f8 c6 1e bd 02 07 f6 bd e0 14 e1 bd cc a7 f3 bd
       -0.03876397 -0.120130554 -0.1099031 -0.11897239
000360 28 ab d0 3c c0 ad a7 bc 40 c2 06 bb 8e c8 c4 bd
       0.025472239 -0.020468593 -0.002056256 -0.09608565
000370 50 8a 3c bc 22 ac a6 bd 70 38 cd bd b8 90 67 bd
       -0.011507586 -0.081383005 -0.1002053 -0.0565345
000380 8c 90 a6 bd 78 c4 86 3d 9c f3 b2 bd cc 6a 1e 3d
       -0.08133039 0.06580442 -0.08737871 0.03867607
000390 48 7e db bd f4 4a ed bd b8 92 b3 bc 80 c1 2e 3b
       -0.107174456 -0.11586562 -0.021920547 0.0026665628
0003a0 00 7a 93 bc 00 d0 09 bc f0 b2 53 bd 10 50 67 3d
       -0.01800251 -0.0084114075 -0.05168432 0.056472838
0003b0 88 4f df bd 02 63 dc 3d 5c 8a ab 3d 48 c3 d7 bc
       -0.10903841 0.10761072 0.08375999 -0.026338235
0003c0 4c 43 cd bd 54 2d 49 3d 08 bc a5 bd e0 c9 4a 3c
       -0.100226015 0.049115494 -0.08092505 0.012377232
0003d0 00 28 97 3c 9c 08 8b bd c0 dc 2e 3c 58 c0 a1 3c
       0.01845169 -0.067887515 0.010672748 0.019745037
0003e0 88 3d 9b bd a0 7e f4 bb 78 f9 d0 bd 98 fe d6 3d
       -0.075800955 -0.007461384 -0.102038324 0.10497779
0003f0 a8 23 0b 3d 80 cc 7c 3b d8 73 fe bd 9c 7d e5 bd
       0.03396955 0.003857404 -0.12424439 -0.11205599

fc3.bias f4 [10]
000000 28 51 35 bd c8 9c be bc b4 4e b4 3d 64 be 1d 3d
       -0.04426685 -0.023268119 0.08804074 0.03851165
000010 b4 89 6e 3d ca 83 b6 bd 5c a2 93 bd ce b1 dc bd
       0.058236793 -0.089118555 -0.07208702 -0.10776101
000020 ea 6d dd bd 94 93 dc 3d
       -0.1081198 0.10770336
