software/my_model.pt (torch, 441426 bytes, 6 tensors)

weight f4 [128, 784]
000000 0a 67 04 3c 07 d6 0e bd 1c 3f 82 3b 33 76 e4 bc
       0.008081207 -0.03487208 0.0039748084 -0.027888393
000010 6e 99 9c ba 05 34 06 bc 38 58 e5 bc fa fc d8 3c
       -0.0011947581 -0.008191113 -0.027996168 0.026487816
000020 ee 4d eb bb c7 f4 81 bc 5f 96 0a 3d d5 2f e5 bc
       -0.007180921 -0.01586379 0.03383481 -0.02797691
000030 1d 18 93 3a 43 a3 ac 3c ba 41 5e 3c 03 f8 93 3a
       0.0011222396 0.021073943 0.013565475 0.0011289123
000040 a3 c2 f9 3c 5f 77 07 bd 11 c5 f3 3c 8a f6 0c 3d
       0.030488318 -0.033072826 0.029757055 0.034414805
000050 63 87 ab 3c 6e 13 8b bb 33 81 d3 3c 13 89 5e 3b
       0.02093858 -0.0042442596 0.025818443 0.0033956214
000060 93 be f1 3a 87 c4 b7 bc 9c e4 ea 3c 85 2a b7 bc
       0.0018443636 -0.022432579 0.028673463 -0.022359142
000070 4a 64 99 3a f7 c4 1e 3c 57 fa 00 3c 77 96 8f 3b
       0.0011702862 0.009690515 0.007872186 0.0043819505
000080 c3 de b4 bc 53 8f 8e bb 26 f4 00 bd 06 f4 22 bc
       -0.022078877 -0.0043505817 -0.031482838 -0.009945875
000090 94 7d b9 3b 87 6e 98 3a df dd 25 bc 17 e3 13 bd
       0.005660722 0.0011629619 -0.010123699 -0.03610524
0000a0 24 e3 74 bb db a2 8f bc e3 d1 78 3b bd 96 d3 b9
       -0.0037366832 -0.01753371 0.00379669 -0.00040357365
0000b0 55 e3 43 3c b0 0b 69 bc 4e 93 fd bc 27 61 f1 bc
       0.011956056 -0.014223978 -0.03095403 -0.029465271
0000c0 5d 3a c1 3c fc 8c bd bc 09 1b 07 3c e7 df 4c bb
       0.0235874 -0.023138516 0.008246192 -0.0031261386
0000d0 dc f4 a7 ba ee 9d 28 3b 3c dc 6e bc 2c e7 b5 bc
       -0.0012814063 0.00257289 -0.014578875 -0.022204958
0000e0 93 df a1 3a 17 0e d6 bc 81 df 57 bb 1e b6 c3 bb
       0.0012349956 -0.026129765 -0.0032939615 -0.005972638
0000f0 a8 f7 75 3c d1 f1 be bc eb 26 50 3c 74 14 6e 3c
       0.015012659 -0.023308666 0.012704591 0.014531244
000100 9f e4 d3 bc 3b 3b f3 3b b1 c7 08 bd 09 de 86 3c
       -0.025865851 0.0074228323 -0.033393566 0.016463296
000110 d8 da 44 bc ea 8c 3b bd 0d f3 50 bd 84 e0 8c 3c
       -0.012015067 -0.045788683 -0.05101304 0.017196901
000120 e7 fa d4 bc 77 de ec ba 88 6e 50 bc 48 26 7d 3c
       -0.025998546 -0.0018071671 -0.012721665 0.0154510215
000130 2c 4b 74 3b 5c f5 69 bc d9 0f 0e bd c9 20 23 bb
       0.0037276251 -0.01427969 -0.034683082 -0.0024891368
000140 49 20 20 bc 76 1a b3 3c e3 2e eb 3c 73 a7 d3 bc
       -0.009773322 0.021863203 0.02870888 -0.025836682
000150 80 ca 99 bb ba e1 8a 3c 80 db c9 3c 7d 55 03 3c
       -0.0046933293 0.016953338 0.024640799 0.008015987
000160 19 88 92 ba 05 48 fa 3c a0 d4 6f 3b da 3a 3c bc
       -0.0011179476 0.03055192 0.003659524 -0.011488641
000170 a5 5e 9f bc 65 dc 9d 3c c8 c5 17 bd e6 35 3e bd
       -0.01945431 0.019270131 -0.037053853 -0.04643812
000180 46 3b 86 bd f8 92 0a bd 8a ac 7d bd 42 3e 72 bd
       -0.06554274 -0.033831567 -0.061932124 -0.059141405
000190 db 12 91 bd 76 fe 6d bb 3e 66 37 bd f1 7d d4 bc
       -0.070836745 -0.0036315 -0.04477524 -0.02593896
0001a0 a0 c1 2a bd ab d1 ff bc c6 71 a6 bb 98 c6 03 bd
       -0.04168856 -0.031227907 -0.005079481 -0.032171816
0001b0 78 2e ad 3c fe cf 86 3c 00 2d 20 bb a5 00 f1 bb
       0.021140322 0.0164566 -0.0024440885 -0.007354813
0001c0 9e 10 d6 3c 91 5d f0 3c 90 45 b5 bb b4 d1 6d bc
       0.02613097 0.029341491 -0.005531974 -0.014515329
0001d0 ca f6 c6 bc 0d ab c6 3a 0f 1c 03 bc 51 d6 ca bc
       -0.0242876 0.0015157178 -0.008002295 -0.024760397
0001e0 00 0c 90 bc cf 49 91 bc 06 b3 58 3b 1c 5f cb bb
       -0.017583847 -0.01773539 0.003306569 -0.0062064063
0001f0 34 4c 09 bd 6a df a5 bd fb ed ed bd 03 49 b8 bd
       -0.03351994 -0.080992535 -0.11617657 -0.08998301
000200 7f eb e6 bd ab 46 73 bd fd 49 85 bd 3c fb 84 bd
       -0.11275386 -0.059393566 -0.06508253 -0.06493232
000210 23 a9 46 3c 8a 0a 24 bc 4c 95 87 3c e4 f5 d9 bc
       0.012125286 -0.010012278 0.016550682 -0.026606508
000220 bc bc b3 ba 2d 8a 2d 3c 20 42 eb 3c d6 19 b4 bc
       -0.0013712863 0.010592026 0.028718054 -0.021984976
000230 22 2c 10 bd a6 e8 0c 3d 5f 96 5d bc c6 bb 07 3d
       -0.03519834 0.03440156 -0.013524621 0.03313806
000240 01 60 db bc 34 fb a7 3c 6c 83 1c 3d 6f e3 da bb
       -0.026779177 0.020505525 0.03821127 -0.006679944
000250 30 d9 09 bd 33 60 47 bd 91 ad 0e bc ee 24 25 bd
       -0.03365439 -0.048675727 -0.008708374 -0.040318422
000260 44 69 9f bd c4 55 e3 bd c8 58 da bd df 49 06 be
       -0.0778375 -0.11100343 -0.10661465 -0.13114117
000270 2c 10 50 be 30 63 20 be 91 79 cf bd 66 b7 da bd
       -0.20318669 -0.15662837 -0.10130609 -0.10679512
000280 92 b2 d2 bd c7 49 45 bd 23 a3 9f bd 97 ee 5f bd
       -0.10287966 -0.048166063 -0.07794788 -0.054670896
000290 26 45 7c bc 90 19 c6 bc 95 dc 09 3d 24 e4 96 bc
       -0.015397346 -0.024182111 0.03365763 -0.018419333
0002a0 45 6a 90 bc ab 4d 50 3c 71 ab 5d bc de 51 e3 3c
       -0.017628798 0.01271383 -0.013529644 0.027748998
0002b0 b4 3b 91 3c 4f ab 19 bc 2a 76 19 3c 7e 9d 40 3c
       0.017728664 -0.009379222 0.009366551 0.011756299
0002c0 6b 37 62 bd 28 89 c2 bd 13 1b 8a bd f6 c2 35 bd
       -0.055228632 -0.09498817 -0.06743445 -0.044375382
0002d0 ec e5 8c bd 7c 0d 12 be 41 44 90 bd 9d 53 15 3d
       -0.068797916 -0.14262956 -0.070442684 0.036456693
0002e0 a8 f3 82 3d 00 7f cb 3d 72 97 97 3d 9c 26 9d 3c
       0.0639413 0.09936333 0.07401933 0.01918345
0002f0 19 f9 2c bd e5 ab ff bc 9b 69 c1 bd d5 ba 57 bd
       -0.042229746 -0.031209895 -0.09443971 -0.05266841
000300 6b 8b 84 bd ac e7 b3 3c 27 88 35 bc d7 b6 04 3c
       -0.06471904 0.021961056 -0.0110798245 0.008100233
000310 25 cf 8c bb 30 fd 5d bc 48 f9 a6 bb 27 6c d9 bc
       -0.0042971545 -0.013549134 -0.0050956346 -0.026540829
000320 b9 9b 0e bc 6b a6 28 bd 26 10 37 bd 86 e1 ad bd
       -0.008704119 -0.041174334 -0.044693135 -0.08490281
000330 08 da ef bd b2 c3 e0 bd 0d dc a6 bd 0d cf 49 bd
       -0.11711508 -0.10974826 -0.0814744 -0.049269725
000340 ee fe bc bb 8c e2 49 3d 5a 37 f4 3d 82 77 34 3e
       -0.0057676947 0.049288318 0.1192462 0.17623714
000350 b1 f3 0d 3e 64 83 15 3e 05 07 a8 3d ef 69 86 3c
       0.13862492 0.14600903 0.08204464 0.016407935
000360 61 23 ab 3c 96 30 32 bd 67 c5 3f bd e8 d0 a7 bd
       0.020890893 -0.043503366 -0.046819117 -0.081941426
000370 1c bc 88 bd d8 96 86 3b 87 6d c0 3b 8e d7 c3 bc
       -0.06676504 0.0041073374 0.0058724317 -0.023906495
000380 19 1f fa 3c 3a 55 d6 3c 97 c2 8e bc fb 6c a7 bc
       0.030532407 0.026163686 -0.017426772 -0.020437708
000390 a4 08 9c bc 4e cc 2f bd 4a e7 73 bd c0 4b ee bd
       -0.019047089 -0.04291945 -0.059546746 -0.11635542
0003a0 3f 42 ad bd 18 5b ed bd a1 36 d2 bc 3c ae a9 b8
       -0.08459901 -0.115896404 -0.025660815 -8.091002e-05
0003b0 b1 3b b3 3b a4 1e eb 3d fd 5f 20 3e d3 46 14 3e
       0.0054697623 0.114804536 0.15661617 0.14480142
0003c0 79 01 75 3d e7 3f 45 3d f8 5c 36 3d ac a1 17 3c
       0.059815858 0.048156645 0.044522256 0.009254854
0003d0 da d9 27 bd 8d fa 41 3b 5b e1 a6 bd 19 50 4a bd
       -0.040979244 0.0029598803 -0.08148452 -0.049392793
0003e0 fb bc b3 bd a8 7d 21 bd 24 60 03 bd 14 13 34 bc
       -0.087762795 -0.039426476 -0.03207411 -0.010990877
0003f0 b7 c5 38 3b d5 cd 4c 39 88 a3 99 3c 9e 1c a5 bc
       0.002819402 0.00019531634 0.018754736 -0.020155247

bias f4 [128]
000000 46 e8 52 bd 9d 23 03 3c 09 40 59 3e fa 8b 1a 3e
       -0.051491044 0.008004096 0.21215834 0.1509246
000010 db c7 a2 3d b9 2b 1f be 56 1b 1a be 49 32 ab bd
       0.07948276 -0.15544023 -0.1504949 -0.083592005
000020 17 08 bd 3d 45 4a 7d bd e1 2c fe 3c 19 90 f3 3d
       0.09230059 -0.061838407 0.03102726 0.11892719
000030 05 c4 0a bd 57 74 10 3d e5 d1 10 bd 01 63 c1 bc
       -0.033878345 0.0352672 -0.03535642 -0.023606779
000040 7e 12 e8 3d 23 c8 d7 bd af ba b2 3d 5f 8e 5f bd
       0.11331652 -0.1053622 0.08727013 -0.054579135
000050 4e 46 20 3e 57 69 83 3e 71 27 82 3d ea e7 98 bb
       0.15651819 0.25666305 0.06355179 -0.004666318
000060 40 23 c6 3b 30 2b 15 be e4 ce ce bd b6 18 a7 bd
       0.0060466826 -0.14567256 -0.10098055 -0.0815901
000070 ac 9f d2 3c c6 61 fd 3c bb 83 cb bc 23 6b 0a be
       0.025710903 0.030930411 -0.024843087 -0.13517432
000080 04 bc 09 be e5 7f 6c bd 03 09 1b be 11 79 b9 3b
       -0.13450629 -0.057739157 -0.15140156 0.005660184
000090 74 02 10 bd a2 3c 98 bd 8d d9 c3 bd 0f 8f 81 bd
       -0.03515859 -0.0743344 -0.09562979 -0.063261144
0000a0 f4 5a 56 be 5b 0a 03 3d 7b 61 42 be 5e 9b c6 3c
       -0.20933133 0.031992298 -0.18982498 0.024244007
0000b0 83 b5 8f bd 61 46 62 bc ab 58 58 3e 60 2b 23 be
       -0.070170425 -0.013810725 0.21127574 -0.15934515
0000c0 d0 10 62 3d b8 eb 8a 3d 29 f7 d4 3c 0a e5 89 bc
       0.055191815 0.06783241 0.025996761 -0.016832847
0000d0 72 d8 a9 bd 11 70 21 3e 1d a4 25 be 16 ed 0d bd
       -0.08293237 0.15765406 -0.16175885 -0.03464993
0000e0 81 f4 88 bd 97 ab e9 bc 92 61 21 be f2 4f 18 be
       -0.066872604 -0.028524203 -0.15759876 -0.14874247
0000f0 c0 d3 e9 3c 87 9c 09 be f4 4d 18 be 64 db d3 bd
       0.028543353 -0.13438617 -0.14873487 -0.1034458
000100 d0 ee 21 3e 27 15 91 3d 78 49 33 3c f6 41 57 bd
       0.15813756 0.070841126 0.010942809 -0.05255314
000110 c0 33 d3 3d 4a dc 2a bc a1 fa b2 bc 5d 6d 82 bd
       0.10312605 -0.010428498 -0.021848025 -0.06368516
000120 d9 04 3f bd d1 b6 05 3d 6b 94 a2 3d 12 ce 19 be
       -0.046635482 0.03264505 0.07938465 -0.15020016
000130 6a a0 96 bd 15 52 0f bd da 3b a0 3c 3e c2 2d bd
       -0.07354815 -0.03499039 0.01955979 -0.042421572
000140 5d a9 0d 3e 63 9f 8e 3d 65 bc 2b 3e a8 f4 2f 3d
       0.13834138 0.06963994 0.16771086 0.04295793
000150 95 ee 0d bb c9 63 5b bc 23 6a 36 3d 60 d4 3c bd
       -0.0021657099 -0.01339049 0.044534814 -0.046100974
000160 29 1b cf bd 84 55 5e 3c 66 4e 5b 3e 1b 6e 33 bc
       -0.10112602 0.013570193 0.21416625 -0.010951544
000170 ec 4f 41 bd 7c d3 61 bc 92 c0 6f be bc 6b 77 bd
       -0.04719536 -0.013783332 -0.23413303 -0.060405478
000180 ca ef b4 bd 63 f7 d2 bc cc 39 a3 be e8 dd d8 3d
       -0.08834799 -0.025752729 -0.31880033 0.105892
000190 50 8d 8f 38 7b 06 1a bd a4 72 b7 bc c3 e4 4f be
       6.845093e-05 -0.037603837 -0.022393532 -0.2030211
0001a0 85 92 4d 3c 3d 14 05 3d 82 cf 11 3d 35 f7 83 3e
       0.01254714 0.032490004 0.035598285 0.25774541
0001b0 36 e5 e3 3c 21 d4 61 3d 76 8a b9 3d 68 31 ac bb
       0.027819257 0.055133943 0.090596125 -0.005254913
0001c0 5c 7b 1f be bc a8 2b be 5a c9 39 3d 2b e6 34 be
       -0.15574402 -0.16763586 0.04535804 -0.17665927
0001d0 3a b5 52 3e e2 df 7c bd d0 02 1f bc 19 1f 4c be
       0.20576945 -0.06173695 -0.00970526 -0.19933738
0001e0 ff 5b b3 3d b6 b3 92 3e 59 9e 86 3d 54 46 fb 3d
       0.08757781 0.28652734 0.06573171 0.122692734
0001f0 c8 59 10 3e 6b bf 52 bd 98 f2 4b bd 25 5c 8a bd
       0.14096749 -0.05145208 -0.049791902 -0.067558564

weight f4 [64, 128]
000000 8b 0a 55 3c 3e 3a 18 3d d4 f1 a7 bc ac 33 b0 bc
       0.013003002 0.03716492 -0.020501055 -0.021509014
000010 4f fe 0e bb 69 82 90 bd 9f 0f af 3d a7 34 11 3d
       -0.002181906 -0.07056124 0.08547901 0.035450604
000020 a2 ee 10 3d 87 6a 51 bd e4 1c ac bd 02 6e 42 3d
       0.035383828 -0.051126983 -0.08403948 0.047468193
000030 42 45 3b bd 95 56 ae 3c b9 bf e3 3b 86 c8 e5 bc
       -0.045720346 0.02128152 0.0069503454 -0.028049719
000040 62 64 71 3c b2 7a a0 3d 54 91 a3 bd 42 e9 59 3d
       0.014733406 0.07835902 -0.079867035 0.053200968
000050 93 a0 82 bd 9e d2 ef bd 91 1b b2 bc 3f 3b 17 3d
       -0.06378283 -0.11710094 -0.02174166 0.036921736
000060 18 81 d4 bd c7 f2 86 bd 52 25 85 bd fe d2 6c 3d
       -0.10376185 -0.06589275 -0.06501259 0.057818405
000070 b2 f5 f0 bc 68 a6 55 bd b1 04 b7 bd 72 90 83 bd
       -0.029414032 -0.05216065 -0.08936442 -0.06424035
000080 4a ed 4c 3d e3 66 55 3d 97 cf bd 3d 77 0e 36 ba
       0.050030984 0.052100074 0.0926811 -0.00069449045
000090 a4 4c ee 3d be 9a bf 39 55 14 c3 3d 3c 24 03 bd
       0.11635712 0.0003654565 0.095253624 -0.032016978
0000a0 38 1e ce 3d 88 d5 35 bd 9f fc 31 bd e7 3b 5f bd
       0.100643575 -0.044393092 -0.04345381 -0.054500487
0000b0 88 fa 37 bc 27 3f 5b 3d c6 30 13 bd a2 4b 65 3d
       -0.011229165 0.053527024 -0.035935186 0.055980332
0000c0 5e f0 84 bc 53 ae 58 bd 78 7c 82 3d b4 c2 63 bd
       -0.016227897 -0.052900624 0.06371397 -0.055605605
0000d0 c0 ef 0d 3d af 1c 42 bd 0a 6c a4 bc ed 84 34 3d
       0.03465247 -0.047390636 -0.020071048 0.04407208
0000e0 2c 8d a1 bb a2 45 f7 bc 31 92 dd bb 39 f9 36 bd
       -0.004930159 -0.03018457 -0.006761812 -0.04467127
0000f0 d9 a3 c3 bd 22 39 00 ba b9 d1 bc bd ba e7 b8 bd
       -0.09552736 -0.0004891326 -0.09219689 -0.09028573
000100 65 8f 12 3d ec 6d 6d bd b7 fd 85 bd 0d 34 b1 bd
       0.035781283 -0.057966158 -0.06542533 -0.08652506
000110 61 9f bb 3d 51 00 27 3d 1d ca 8b 3d 37 bb 94 3d
       0.091612585 0.040771786 0.068256594 0.07262271
000120 21 23 00 3c 1a 66 35 3c 19 67 8d bd 41 2e 68 bd
       0.007820875 0.011071706 -0.0690443 -0.056684736
000130 08 20 eb bc 10 d5 4e 3d a8 f4 77 bd 8f 57 ab bd
       -0.028701797 0.05049616 -0.060536057 -0.0836631
000140 07 d1 56 bd 18 14 9a 3d 55 e8 21 bd 13 86 a2 bd
       -0.052445438 0.07523364 -0.03952821 -0.07935729
000150 dc 69 1f bd 35 b2 c2 3c 15 56 0a bd b8 ab 7e 3b
       -0.038919315 0.023766616 -0.0337735 0.0038859677
000160 9a a2 f0 3c 9b ca c8 3c 77 e4 80 bd ec 14 88 3c
       0.02937441 0.024510672 -0.06293576 0.016611539
000170 e2 26 88 39 cb 86 9b 3c f4 1a 5d bc 75 cd 21 3d
       0.0002596891 0.018985173 -0.013495196 0.03950258
000180 90 f4 57 3b 48 5e 61 3d fd f2 72 bd 8e 70 7c 3d
       0.0032952167 0.055021554 -0.059313763 0.061630778
000190 64 39 d8 3c 4c 69 0a 3d 94 49 16 bc 30 69 74 bd
       0.026394553 0.033791825 -0.009172816 -0.059670627
0001a0 de ba 85 bd a9 e8 74 bd fb fa c4 3c 99 91 ba 3c
       -0.06529783 -0.059792195 0.024045458 0.022774504
0001b0 e9 d2 4f bb df d3 e1 3d e6 24 a9 bb df b7 ab bd
       -0.0031711406 0.11026739 -0.0051618693 -0.0838468
0001c0 71 2e 78 bd ea 1a 87 bd 4d a5 1f 3d 94 f4 d7 bd
       -0.060591165 -0.0659693 0.038976002 -0.105446965
0001d0 98 d5 59 bd 40 87 af bb af c8 f8 bc 89 7e 94 bd
       -0.053182214 -0.005356699 -0.03036913 -0.07250697
0001e0 49 df c1 bd 50 1d 7d bd 8c 4f 63 bd 57 57 85 bd
       -0.094664164 -0.061795533 -0.055495784 -0.065107994
0001f0 35 da 63 bd 99 0b cc 3c 83 4c 93 3d cd fd 12 3d
       -0.05562802 0.024907874 0.07192328 0.035886575
000200 de 78 29 bc 10 9e 37 3d 56 34 56 bd 3c 7b c3 3b
       -0.010343758 0.044828475 -0.052296005 0.0059656184
000210 bb c1 80 3d 2f fb b6 3d f3 03 8c 3c 27 14 30 bc
       0.06286951 0.08934628 0.017091727 -0.010746992
000220 7c c5 5a bc f8 13 e6 bc 3d 1b da bc 30 96 ce bc
       -0.013352748 -0.028085694 -0.026624316 -0.0252181
000230 35 ee 9b 3d d6 53 b8 bc f5 d8 a4 3d 58 c0 44 bd
       0.07613794 -0.022500914 0.08049194 -0.048034996
000240 12 0c 77 bd fe cd fb bb 1d a0 ad bd 7d 8d 89 bd
       -0.060314246 -0.0076844683 -0.08477805 -0.0671644
000250 3e 81 02 bd 17 3c 04 3d 9e ce 2d 3d 21 50 94 bd
       -0.031861536 0.03228387 0.042433374 -0.07241846
000260 4f 77 4e 3d 4b d4 89 bd 96 f4 52 bd 30 27 9f bc
       0.05040675 -0.06729945 -0.051502787 -0.019427866
000270 60 f2 82 3c bc 18 26 3d 0b a4 a2 ba 9a 03 92 bd
       0.015984714 0.040550932 -0.0012408508 -0.07129593
000280 70 70 56 38 69 aa 82 bd d8 c0 94 bd ad 41 53 3d
       5.112629e-05 -0.063801594 -0.072633445 0.051576305
000290 41 61 85 bd e8 55 8e 3d d1 70 89 bd d5 e2 91 3d
       -0.0651269 0.06949979 -0.06710971 0.07123343
0002a0 06 2b 55 bd 5b 64 82 bc ec 7f 7b 3d f0 ac 0a 3d
       -0.052042983 -0.015916994 0.061401293 0.033856332
0002b0 60 21 89 bd 5c e4 3e bd 30 6f f3 3c ab 65 8a bd
       -0.06695819 -0.0466045 0.029716104 -0.06757673
0002c0 1d 58 fd 3c b1 d8 08 bb 94 4d 49 3a 32 63 54 bd
       0.030925805 -0.0020881111 0.00076791015 -0.051852413
0002d0 84 81 91 bc 0d b7 48 bd bb 87 a2 bd a0 f8 0e 3d
       -0.017761953 -0.049002696 -0.07936045 0.034905076
0002e0 88 26 a3 bd ff fa 90 3d 81 44 69 3d be e9 db 3c
       -0.07966334 0.07079124 0.056950096 0.026844855
0002f0 35 08 97 3c cd 97 bf bc 57 4a 02 bd e8 db f0 bc
       0.01843653 -0.023387814 -0.031809177 -0.029401734
000300 31 02 8e bd 21 d3 4e bd 56 81 32 3c 78 7a 1b 3d
       -0.06934012 -0.050494317 0.010895094 0.037958592
000310 08 c9 73 3d d5 aa 59 3c f8 a2 de 3c ba de b9 bc
       0.05951789 0.013285358 0.027177319 -0.022689212
000320 37 fc a5 bd 3d 8e 4d bd e6 d1 eb 3c c3 f3 cb bb
       -0.08104747 -0.050184477 0.02878661 -0.006224127
000330 23 30 7a bd ac 3a 76 bd 35 0d 86 bd 6c e7 a8 3d
       -0.061081063 -0.060114548 -0.06545488 0.08247265
000340 e9 a8 79 bd 54 8f ef bc 0b 27 24 bd 3e c7 50 3c
       -0.0609521 -0.029243149 -0.040076297 0.012742816
000350 72 40 64 bd fe 50 36 3d 1a 70 25 bd 25 52 46 bd
       -0.055725522 0.044510834 -0.04039011 -0.048418183
000360 e0 ad b2 bb 6f e2 25 3d 68 ff ae 3d e8 b3 05 3d
       -0.0054528564 0.040499147 0.085448086 0.032642275
000370 04 56 ad bc 81 d2 9b 3d 50 2c aa bc f1 da 9f bc
       -0.02115918 0.0760851 -0.020773083 -0.01951358
000380 dc 61 00 3d 6a d7 70 3d 30 ba 0e ba 78 ca 5b bd
       0.031343326 0.058799185 -0.0005444614 -0.053659886
000390 12 09 0f bd 18 6c 81 bd 87 f7 44 bd 69 36 8f bc
       -0.03492076 -0.06319445 -0.048087623 -0.017482
0003a0 17 8a 8b bd e6 c1 d8 bc a8 b4 23 bc 7f 1b 8e bd
       -0.06813448 -0.026459645 -0.009991802 -0.06938838
0003b0 34 29 78 3d 2c 48 58 bc f4 98 77 bc 67 0f 2c 3d
       0.06058617 -0.013200801 -0.01511215 0.042006876
0003c0 67 fc 51 3d 8f 5b 81 bd c5 6e 6c bd 22 a1 15 bd
       0.0512661 -0.063162915 -0.057722826 -0.03653062
0003d0 be 66 e3 b9 c5 f8 3d bd 93 da 54 bc 42 d0 8b bc
       -0.00043373363 -0.046379823 -0.012991565 -0.017067079
0003e0 f0 52 05 3d 93 12 40 bd 48 71 94 bd 36 5a 7b bd
       0.0325498 -0.046892714 -0.07248169 -0.06136533
0003f0 51 31 8f 3d e6 50 fc bc f7 c3 4d bd fd 42 b5 3d
       0.06991828 -0.030800294 -0.050235715 0.088506676

bias f4 [64]
000000 15 f8 de 3d df 5a a7 bc 69 75 99 3e 32 54 0b be
       0.10887162 -0.020429073 0.2997239 -0.13606337
000010 a3 36 39 be 73 38 99 bd bd 1d da 3d 0d a7 ae 3e
       -0.18087249 -0.0748147 0.106502034 0.34111825
000020 a3 0e 95 bd a7 8b 65 be 40 d1 11 3e 3a 13 24 be
       -0.07278182 -0.22416554 0.14239979 -0.1602296
000030 db 1f bd 3e 0e 96 e8 3e a0 3b 81 3d bb ec 6b 3d
       0.36938366 0.45426983 0.06310201 0.05759881
000040 87 8a 90 3d 23 9c 78 bd a9 89 9f bc 28 f8 ba 3c
       0.07057672 -0.06069578 -0.019474821 0.022823408
000050 cc f9 02 3e 89 81 5d 3e 36 6b 38 3e ef 22 5a bd
       0.12790602 0.21631445 0.18009648 -0.05325597
000060 25 8b 18 3e f7 45 ef 3d d1 9a 86 3d 94 45 00 3c
       0.1489683 0.116832666 0.06572498 0.007829089
000070 1c 3d bd 3e 67 98 01 bd d9 4b 3e 3e fe 6d 04 be
       0.36960685 -0.031639483 0.18583621 -0.12932584
000080 6f bb 98 3e 45 62 6c bc e6 ea 40 3e 62 fa 89 bc
       0.298305 -0.014427726 0.18839607 -0.016843025
000090 46 51 2d 3b 8b 09 61 bd ae 65 06 3d e0 14 cb 3d
       0.0026446148 -0.05494074 0.032811813 0.09916091
0000a0 75 bd 75 3d 07 46 10 3c 92 2c bf bd 08 d4 6d bc
       0.059995133 0.008805758 -0.09334673 -0.014515884
0000b0 5f ba 28 3c 61 b1 fe bb 2f 30 6a 3e 60 d7 ad bd
       0.010298341 -0.00777261 0.22869943 -0.08488345
0000c0 1f b4 f5 3d 25 b7 0a 3c ac 82 36 3e ae d6 3f 3d
       0.11997246 0.008466517 0.17823285 0.046835594
0000d0 d9 f6 f4 3c d1 e7 c0 3e 8a 2e ee bd 5d 6f d7 bc
       0.029902862 0.37676862 -0.1162997 -0.02629822
0000e0 0a 04 c2 3c 45 a3 d3 3e 07 05 ac 3e 33 6a 83 bd
       0.023683567 0.41335502 0.33597586 -0.0641674
0000f0 f3 3d ab bd 64 64 5d 3d e3 4f 29 3e 09 8a a0 3d
       -0.08361425 0.054050818 0.1653438 0.07838828

weight f4 [10, 64]
000000 6e f2 a5 bd 1b fe e3 bd a8 41 27 3e 87 3e 44 be
       -0.081028804 -0.11132451 0.1633364 -0.19164477
000010 61 52 9c bd 4d d0 ea bc 42 5f 14 bf b8 0d f0 be
       -0.076329 -0.028663779 -0.5795785 -0.46885467
000020 ae 0d de 3d 06 38 a4 be c2 ba 9e 3d 20 c5 f9 3d
       0.10842453 -0.32073992 0.07750465 0.12195802
000030 a1 f7 c7 3e e7 82 90 3e 13 9e 91 be 56 05 ee bd
       0.39056113 0.2822487 -0.28440914 -0.116221115
000040 aa 34 a7 3d 19 7e a4 be db 09 37 be f1 bb ad bd
       0.08164342 -0.32127455 -0.17874853 -0.084831126
000050 b1 ab c9 3c 54 50 24 bf e3 0b fa bd 94 9c 04 3f
       0.024618002 -0.6418507 -0.122092985 0.5180142
000060 c7 45 4f 3d 30 71 aa bd 46 2b 05 be 3c 39 1e 3d
       0.050603654 -0.0832237 -0.13004789 0.0386288
000070 7e 01 4b be 62 a2 bc 3e 6d 8b 2c be 56 55 40 3f
       -0.19824788 0.36842638 -0.16850062 0.7513021
000080 7b ac 82 3c ed d0 6b be 5f 7c 1c be 4f 7e b1 3e
       0.015951386 -0.23028918 -0.15281819 0.34666678
000090 fc ae 86 3e ac 47 f4 3c 3a 4c 08 3f 5e 77 d5 3d
       0.26305377 0.029819332 0.5324131 0.10423158
0000a0 59 26 16 3e 71 b2 a3 3e 5f d1 a2 3e 16 31 8d bd
       0.14663066 0.31972077 0.31800362 -0.06894128
0000b0 22 8b 18 be 62 9d 3c be a0 af 8e bb 55 0d 86 3d
       -0.14896825 -0.18419412 -0.004354432 0.06545512
0000c0 be db 1b bf 07 58 15 be 3b 57 fa bd b7 f6 5a 3d
       -0.60882175 -0.14584361 -0.12223669 0.05345794
0000d0 cb 46 07 be 7b f4 0f 3e 44 a5 0a 3f d7 49 83 be
       -0.13210599 0.14058106 0.54158425 -0.25642273
0000e0 e7 d1 88 3e d1 51 30 3e 9b ec df 3e c7 84 9c bd
       0.26722643 0.1721871 0.43735203 -0.07642513
0000f0 f6 2b fa bd 41 fb 0a bf af 04 ee 3d 3b c1 3f 3e
       -0.12215416 -0.54289633 0.11621987 0.18726055
000100 22 42 16 be 90 f6 16 3d 3a 84 9c be 86 37 fc bc
       -0.14673665 0.036856234 -0.3056963 -0.030788194
000110 cc bf 36 3f d2 bb 6f 3d f3 9d 0b 3f 32 88 93 bd
       0.7138641 0.05852873 0.54537886 -0.072037116
000120 7f da 06 3e cd ec 57 bc 0e 5d 21 3d 21 a2 c2 bd
       0.13169287 -0.013179016 0.039395384 -0.0950358
000130 47 36 0e 3d 61 72 f2 be 5a ea 11 3f 53 5a 9b be
       0.03471973 -0.4735289 0.5699822 -0.3034235
000140 b3 ed 06 be 2e e5 17 bd 8d a8 9d 3d 84 d3 61 bd
       -0.13176613 -0.037083797 0.07698164 -0.055133358
000150 a2 5b 69 be 34 ec ea 3e d5 fa 13 3f 1e 46 d7 be
       -0.22788861 0.45883334 0.57804614 -0.42045683
000160 f7 bb 9e 3e 4b 51 10 3f 7f eb b1 3b 09 97 37 3f
       0.3100278 0.56374043 0.0054296847 0.71714836
000170 f0 b4 84 3c 26 f3 56 be c4 32 50 3e a5 f8 a7 3a
       0.016199559 -0.20991191 0.20331866 0.0012815191
000180 26 81 04 be b7 ba cd bc 6f bb 26 3d 19 31 0f be
       -0.12939891 -0.025113447 0.040706094 -0.13983573
000190 ca da 0a bf cc 11 3c 3e 3a 61 e6 be 61 43 f6 3d
       -0.54240096 0.18366164 -0.44996053 0.1202457
0001a0 28 3e 52 be 20 08 26 3e 46 94 8b be 0a dd 58 be
       -0.20531523 0.16214037 -0.2726156 -0.2117807
0001b0 f0 a6 a8 bd 54 ed c1 bd 78 86 86 3e ca 15 88 be
       -0.08234966 -0.09469095 0.26274467 -0.26579124
0001c0 2c c8 c6 3e 7b b3 c3 bd 6c 32 2c be 30 58 74 bd
       0.38824594 -0.095557176 -0.1681611 -0.059654415
0001d0 dc dd dd bd 06 d0 ec be ce 68 20 3d bc 06 98 be
       -0.10833332 -0.4625246 0.03916245 -0.29692638
0001e0 98 02 7c be fb a9 18 3c 6d 49 98 3c 69 47 81 3e
       -0.24610364 0.00931787 0.0185897 0.25249794
0001f0 23 b6 d9 bc 15 ab 00 3f 6a 5d 02 bd bf 4e 5a 3e
       -0.026576107 0.5026105 -0.031827368 0.21319102
000200 c5 f6 89 bc ee 7a 26 3b 25 ba 68 3e f5 fb 1d 3f
       -0.016841302 0.0025402862 0.22727259 0.6171258
000210 8a 2d 9e 3e ce c1 26 bc 40 cc 1d 3e 1a 05 d6 be
       0.3089412 -0.010178043 0.15409946 -0.41800767
000220 5d 89 6f bd d7 1d 99 3d 49 e6 37 3f 79 e8 8b bd
       -0.05848061 0.074763946 0.7183576 -0.0683145
000230 6d b2 4f 3e 21 c7 8f 3e c9 56 27 3e 10 5f 05 3e
       0.20282908 0.2808161 0.163417 0.13024545
000240 d7 ec e8 3d 2a 0c 7f 3e 49 2f af 3e ca 1a 1f bd
       0.113732986 0.24906984 0.34215763 -0.038843907
000250 bb 24 38 bd b6 ce b4 be d6 2f 94 be 9e 40 33 bd
       -0.044956904 -0.35313958 -0.28942746 -0.043762796
000260 bf 69 c0 3e f7 3c e2 be 2a 7a a4 bb 15 3f bf 3d
       0.37580678 -0.44187137 -0.005019446 0.09338204
000270 56 ed a6 be 3b d9 51 bd 23 78 7b be e1 e3 bd be
       -0.32602948 -0.051232558 -0.24557547 -0.3708792
000280 97 24 9f 3e 63 cf 06 3e 83 79 8a 3d 03 f9 a2 be
       0.31082603 0.13165049 0.06761458 -0.31830606
000290 d4 00 50 3e 0e ac e4 bc 0b fa 33 3e e0 14 0f be
       0.20312816 -0.027914073 0.17575853 -0.13972807
0002a0 37 74 3e be 9b 08 fa 3e b2 be 80 bd a6 db 40 be
       -0.1859902 0.4883469 -0.06286372 -0.18833789
0002b0 04 4b 23 3e 31 81 a3 3d d0 27 1b bd c0 21 d0 3d
       0.15946585 0.07983626 -0.037879765 0.10162687
0002c0 17 0c ce 3d 88 f4 5a 3e 32 6b 64 be 61 b4 5d bd
       0.100609 0.21382344 -0.22306517 -0.0541271
0002d0 59 df a5 3d 2f 92 ba be 41 13 11 3f 8b 4b 7a be
       0.08099241 -0.36439654 0.56670004 -0.2444288
0002e0 f7 72 8f 3d 4a bd 1e be 7e 68 5b 3e 43 67 3f 3c
       0.0700435 -0.15501896 0.2142658 0.011682334
0002f0 db d1 49 be 49 17 3c 3f c5 9e dc 3e 8a 8c 72 be
       -0.1970896 0.7347303 0.43089882 -0.23686424
000300 a7 20 28 3e d3 78 9d 3d 6b 33 37 3e 54 26 17 3e
       0.16418706 0.07689061 0.17890708 0.14760715
000310 c4 f2 95 bd 6a 3e 17 bd 47 7c c4 3e c5 f2 92 3e
       -0.073216945 -0.036924757 0.38376066 0.28700843
000320 dd 88 7d 3e 1b b8 06 3f aa 63 9a 3d 65 b2 64 3e
       0.2475924 0.5262467 0.07538541 0.22333677
000330 99 a1 60 bc a4 2e c1 3e 9c 83 85 bd 22 ef 8b bc
       -0.013710403 0.37730896 -0.06519243 -0.0170818
000340 fb 53 80 3d 2e c2 f7 bc a9 2f 87 3e 29 b9 b6 3e
       0.06266018 -0.03024396 0.2640355 0.3568814
000350 fc a6 18 be ed d5 1a 3f 3f 59 4f be bb 87 0e 3d
       -0.1490745 0.60482675 -0.20248888 0.03479741
000360 5c 23 0c be f2 ca 5f bc ff 01 b3 bc a4 04 92 be
       -0.13685364 -0.013659226 -0.021851538 -0.28519166
000370 03 58 a7 bd 0b b1 dc bd 68 59 17 be 2a 11 b3 bd
       -0.08171084 -0.10775956 -0.147802 -0.08743508
000380 24 5e 07 be fa 58 b8 3e 3f 88 03 be 3e 81 67 3d
       -0.13219506 0.36005384 -0.12844943 0.05651974
000390 7c 42 97 3e d8 74 dc bd d9 ac 1b be 42 42 6f 3d
       0.2954291 -0.10764474 -0.15202655 0.058412798
0003a0 d2 df 9d bd 8a ab 78 3d df 1d b0 3e 4a 50 8d 3e
       -0.07708706 0.060710467 0.3439779 0.27600318
0003b0 54 34 61 3e 35 e5 b3 bd 81 f3 f6 bd 2e ca f8 3d
       0.21992618 -0.08783952 -0.120581634 0.12147938
0003c0 ea 97 43 3e c7 51 9b 3d f9 06 5d 3e 31 f0 a8 3c
       0.1910092 0.07583957 0.21584691 0.020622345
0003d0 cc 94 6b bd 94 69 ee 3e 0b f9 8d be 7f 3b 6a 3e
       -0.05751495 0.46564925 -0.27729067 0.22874258
0003e0 f5 96 be 3c f8 2d 8e 3a 10 08 41 be f3 8d 2e 3e
       0.023265341 0.001084744 -0.18850732 0.17046337
0003f0 41 af 53 3e 82 f0 fd 3e 75 0b b4 bd 09 61 f7 bd
       0.20672323 0.49597555 -0.08791248 -0.12079055

bias f4 [10]
000000 2a 05 2a be 94 4f d2 3d 6e e4 04 3e 31 88 9f 3d
       -0.16603532 0.102690846 0.12977764 0.07789648
000010 a9 6f 15 3e ef 40 8e 3e 1c a1 31 be ee 9a 09 bd
       0.14593376 0.27783915 -0.17346615 -0.033595018
000020 5f ad 1b 3f 48 bc 0e 3f
       0.6081142 0.55756044
